best_model.pth (torch, 711979 bytes, 9 tensors)

fc1.weight f4 [512, 8]
0.101421654 -0.055765323 -0.050664715 0.18728176 0.2835207 -0.27787066 0.088609785 -0.29126006
-0.22972313 0.30110744 -0.064150974 0.10488619 -0.111828454 0.17783725 -0.10989158 0.07335681
-0.084919624 0.01709393 0.24832313 -0.23494664 -0.0005915847 -0.04600364 -0.05308018 0.2010706
0.09536193 0.22131887 -0.2942744 -0.29302877 0.04129408 0.36337802 -0.15585318 -0.25777015
-0.14523375 0.21555528 0.1693157 -0.17752582 0.30290052 0.26174444 0.2343919 -0.13708737
-0.23886643 0.0147122685 -0.17880738 -0.1335668 -0.3016991 0.029101072 -0.2655842 -0.11714716
-0.11071906 0.10922073 -0.24795316 -0.07367021 0.20364292 -0.35188094 0.2943013 -0.37317422
-0.1721219 0.2996047 0.1041298 -0.043569952 -0.33181673 -0.34211013 -0.2731407 0.05873786
-0.3112114 -0.19012535 0.223157 -0.14657734 0.044870693 0.23269188 -0.21372266 0.24232365
0.058133353 -0.050907116 0.15469901 -0.23043203 -0.18212588 -0.068655506 0.08835946 -0.15694577
0.20137347 -0.28360903 0.23868391 -0.24245009 0.004897379 0.085484445 -0.19590081 0.07056569
0.3559577 0.11990006 -0.20167235 -0.2238847 0.28513741 -0.046179764 -0.109283 0.17544362
0.32104447 0.10453485 0.027677462 -0.051379167 0.19127965 -0.16209787 0.116757974 -0.22489181
0.056231074 0.284368 0.13493396 -0.02414003 0.0730889 -0.2642693 0.11901156 -0.09627054
0.332741 -0.34246337 0.15458041 0.27876204 -0.27253413 0.09343869 0.036269374 -0.18696074
-0.284271 0.2506672 -0.2682498 -0.26135308 -0.13141519 -0.11818879 0.13749595 0.025387831
-0.019387726 0.16498007 0.24851918 0.03553362 -0.2504599 -0.37201768 0.29326114 0.020577695
0.25052598 0.10299976 -0.23549882 0.12717648 0.36631244 -0.068215586 0.32843667 -0.3132558
0.09297405 -0.37121478 -0.05146874 -0.3252478 -0.04006426 0.16827372 -0.27957597 0.25943235
-0.2574186 -0.18506464 -0.25363633 -0.04877617 0.34299922 0.20168476 0.30493584 -0.071858026
-0.34773624 -0.1854905 -0.3268847 -0.20361635 -0.1393218 0.12843776 -0.15442394 -0.028327942
-0.09654095 0.15531364 0.30742407 -0.36620805 -0.2760331 -0.3203444 -0.023528783 0.11720006
0.056147125 -0.32850158 -0.13748872 0.28078192 -0.3722381 0.27329233 -0.0131331505 0.13536626
-0.17189597 -0.16073908 0.27884877 0.32729557 0.32835287 0.3198083 0.005126948 0.31323788
0.13201815 -0.23159735 0.02491655 -0.15341136 -0.32522616 0.029205201 -0.1126861 -0.016331816
0.27653822 -0.19378103 -0.15917028 -0.09391349 0.17369615 0.18895039 0.010423005 -0.31900603
0.2658261 -0.16529319 -0.3036272 0.021333314 -0.014085383 -0.2515846 0.11721721 0.28661883
0.25805363 -0.23235562 -0.08104824 -0.029114982 0.07020349 0.33198187 -0.13349083 -0.08131813
-0.12331286 -0.12791982 0.23105827 0.28958234 -0.009876562 -0.26346102 0.028889852 -0.16984951
0.15523073 0.11942239 0.25060654 -0.29695386 -0.22884132 0.070235796 -0.14413577 -0.24211927
0.1714545 0.027097585 -0.18159091 0.3318627 -0.12868518 0.08343673 0.12161658 -0.05197207
-0.28114507 0.23227958 0.2006575 -0.30527776 -0.14271392 -0.26662794 -0.34701625 -0.14039075
00000000: 28b6 cf3d 2e6a 64bd ce85 4fbd cac6 3f3e
00000010: a029 913e 1045 8ebe 0c79 b53d 0a20 95be
00000020: 8a3c 6bbe c12a 9a3e 9661 83bd 92ce d63d
00000030: 5106 e5bd f81a 363e d60e e1bd 183c 963d
00000040: 57ea adbd 9208 8c3c 6b48 7e3e da95 70be
00000050: 9414 1bba 506e 3cbd 9a6a 59bd 74e5 4d3e
00000060: 1e4d c33d 6aa1 623e 22ab 96be de07 96be
00000070: fb23 293d af0c ba3e fa97 1fbe 73fa 83be
00000080: 28b8 14be 86ba 5c3e 1861 2d3e 54c9 35be
00000090: c715 9b3e 5e03 863e 6e04 703e a260 0cbe
000000a0: 6799 74be ba0b 713c 4819 37be bcc5 08be
000000b0: 4e78 9abe 5f65 ee3c a7fa 87be daea efbd
000000c0: adc0 e2bd 1eaf df3d 6fe7 7dbe 68e0 96bd
000000d0: c587 503e bd29 b4be a9ae 963e b110 bfbe
000000e0: b940 30be ca65 993e 0142 d53d 6876 32bd
000000f0: e2e3 a9be 0f29 afbe 19d9 8bbe 1c97 703d
00000100: 1a57 9fbe 38b0 42be 4583 643e 5f18 16be
00000110: 55ca 373d c846 6e3e 1dda 5abe b123 783e
00000120: 3d1d 6e3d fb83 50bd 6b69 1e3e 60f6 6bbe
00000130: 357f 3abe 429b 8cbd cef5 b43d 64b6 20be
00000140: d934 4e3e 3435 91be 8e69 743e d644 78be
00000150: 317a a03b 7812 af3d 399a 48be bf84 903d
00000160: 1640 b63e 2a8e f53d 3283 4ebe 0842 65be
00000170: 88fd 913e fe26 3dbd c4cf dfbd 7ea7 333e
00000180: f15f a43e 5e16 d63d d8bb e23c f672 52bd
00000190: d0de 433e fcfc 25be ce1e ef3d 0a4a 66be
000001a0: 8e52 663d af98 913e 212c 0a3e 50c1 c5bc
000001b0: a2af 953d 4e4e 87be 55bc f33d 7d29 c5bd
000001c0: 075d aa3e 5c57 afbe 544a 1e3e e6b9 8e3e
000001d0: 9889 8bbe c95c bf3d 328f 143d a372 3fbe
000001e0: f88b 91be 7457 803e 0a58 89be 12d0 85be
000001f0: b491 06be f70c f2bd bdcb 0c3e 24fa cf3c
00000200: 02d3 9ebc 89f0 283e d07b 7e3e b38b 113d
00000210: 483c 80be 1a79 bebe 5326 963e 8e92 a83c
00000220: f144 803e 8af1 d23d 9a26 71be 8d3a 023e
00000230: 4e8d bb3e 9db4 8bbd da28 a83e 1063 a0be
00000240: 2e69 be3d dd0f bebe e3d0 52bd e186 a6be
00000250: 6c1a 24bd f24f 2c3e 9524 8fbe 51d4 843e
00000260: 5fcc 83be 9681 3dbe 9fdc 81be 85c9 47bd
00000270: 989d af3e 7386 4e3e 8d20 9c3e 4d2a 93bd
00000280: 7c0a b2be 39f1 3dbe 6e5d a7be ce80 50be
00000290: 60aa 0ebe 3085 033e 4f21 1ebe 0010 e8bc
000002a0: 43b7 c5bd 8a0a 1f3e b066 9d3e 9f7f bbbe
000002b0: 3654 8dbe 2e04 a4be 6fbf c0bc 9606 f03d
000002c0: 87fa 653d 5c31 a8be d8c9 0cbe a6c2 8f3e
000002d0: fe95 bebe f9ec 8b3e 6d2c 57bc 749d 0a3e
000002e0: 7f05 30be c998 24be 44c5 8e3e 4993 a73e
000002f0: de1d a83e eabd a33e f5ff a73b b760 a03e
00000300: c42f 073e db27 6dbe cb1d cc3c de17 1dbe
00000310: 0b84 a6be bf3f ef3c f8c7 e6bd 4dca 85bc
00000320: 6b96 8d3e 896e 46be 89fd 22be b755 c0bd
00000330: 67dd 313e 367c 413e 40c5 2a3c c254 a3be
00000340: 5c1a 883e 9e42 29be 0675 9bbe 34c3 ae3c
00000350: 61c6 66bc b2cf 80be 940f f03d b4bf 923e
00000360: 9b1f 843e a2ee 6dbe 9ffc a5bd 8b82 eebc
00000370: d9c6 8f3d 87f9 a93e d2b1 08be 1f8a a6bd
00000380: 748b fcbd 6afd 02be 8a9a 6c3e 2344 943e
00000390: 4ed1 21bc 5de4 86be 69aa ec3c 08ed 2dbe
000003a0: cef4 1e3e ba93 f43d 804f 803e 560a 98be
000003b0: 6155 6abe c9d7 8f3d 5498 13be 1dee 77be
000003c0: c591 2f3e c1fb dd3c f8f2 39be e8e9 a93e
000003d0: 0cc6 03be e0e0 aa3d 1d12 f93d aae0 54bd
000003e0: 3ff2 8fbe b3da 6d3e 2979 4d3e 5e4d 9cbe
000003f0: 9923 12be 7583 88be 1dac b1be 98c2 0fbe

fc1.bias f4 [512]
0.26541287 -0.0055609695 0.04718383 -0.082359485 0.23232968 0.29117116 0.26156756 0.19655882
0.06658803 0.23317833 0.2642943 0.005300522 0.17084408 0.28623825 -0.022847062 0.12080908
0.21627344 -0.08324598 0.3357945 -0.07269281 -0.016791016 0.029813832 0.14206553 0.30737162
0.24398476 0.23906067 0.12325881 -0.020705357 0.033346266 0.022871844 -0.24035382 -0.12601915
0.19525532 -0.21251874 -0.13242406 -0.34012118 0.0693726 -0.049229156 0.054556046 0.08094035
0.100837246 0.22265372 -0.18658707 0.15344241 -0.17685273 -0.19111608 -0.3450588 -0.023361547
-0.052528873 -0.053323284 0.22240198 -0.12755524 -0.20535117 0.007838468 -0.08020006 -0.21873179
-0.0032369173 0.13692312 -0.0932576 0.053839814 0.021631217 -0.111875564 -0.19968106 0.15388052
-0.18610266 -0.05545879 -0.079451144 0.152009 -0.31928208 -0.22053164 -0.25211012 0.28734425
-0.27359197 -0.21634625 -0.30923793 0.06830797 0.2025367 0.25055248 0.097075574 0.0841948
0.2776964 -0.00040693762 -0.10646791 0.28499845 0.1735853 -0.08057217 -0.17359306 -0.08707569
-0.06252376 -0.32030725 -0.33255237 0.2322847 0.21870811 0.0037776832 0.13674842 0.016412582
0.07563784 -0.076116376 0.23367955 -0.11007594 -0.28853622 0.119506314 -0.13131386 -0.27012864
0.23385584 0.113565736 -0.23593304 -0.27221894 -0.18748279 0.088296466 -0.24255219 0.15079333
-0.1979777 -0.13062465 0.09352109 -0.14755851 -0.2879785 0.052326277 0.03332323 -0.15719031
-0.05619644 0.21294025 -0.052761585 0.26295912 0.30786064 0.14081472 0.121623814 -0.2641791
0.013618757 0.12778111 -0.282593 0.032892875 0.094300695 -0.06762989 0.3120024 -0.33649325
0.14149773 0.082940094 0.2802666 -0.011950837 0.09406605 -0.12722003 -0.07204353 -0.006855734
0.2220502 0.06548967 0.07730053 0.11576202 0.067634024 0.2876107 0.31538314 -0.2274062
0.10215022 0.3247647 -0.33422482 0.31136692 0.001730684 -0.33298007 -0.0814834 0.0013988356
-0.00064919307 -0.22785453 0.15930665 0.25121373 0.25312907 -0.053058952 -0.0044017974 0.26094782
0.298026 0.06956948 0.15156098 -0.05648055 -0.17164119 0.13896762 0.20803787 0.2525852
-0.23574649 0.035456616 0.009250014 0.21978869 0.19101264 0.17723149 -0.15078203 0.14098488
-0.19525401 -0.078880586 -0.042545386 -0.33987555 0.2300357 0.014089734 0.08070582 0.27514076
-0.16721465 -0.0017769777 0.03639147 0.25557074 0.18452245 -0.09534097 -0.23809953 0.04470052
0.26477265 0.1439897 0.008511621 0.021471553 0.33045325 -0.19223927 -0.280811 0.10108401
-0.30007216 0.11973164 -0.30230772 -0.052443866 0.026330225 0.15369613 0.1506093 -0.07582683
0.12138202 0.035463627 -0.15384512 -0.1181548 0.15126067 -0.35857674 -0.022639522 -0.020243987
-0.052289415 0.26965317 0.2672842 -0.13696823 0.06250352 -0.047696326 0.30356336 0.10912787
0.31230542 -0.09891115 0.07234533 0.1911576 0.18138097 -4.346558e-05 0.010547626 0.059812322
0.17178462 -0.29108778 0.17715892 0.349529 0.33668497 0.26603618 -0.124436684 -0.22864395
0.14675586 -0.24338704 0.17032978 0.057274718 -0.30891085 -0.26475388 -0.18358351 0.24771388
00000000: 32e4 873e cb38 b6bb d543 413d 17ac a8bd
00000010: d5e7 6d3e 6314 953e 2fec 853e b746 493e
00000020: 4e5f 883d 4dc6 6e3e 9551 873e 00b0 ad3b
00000030: c0f1 2e3e d28d 923e c329 bbbc c06a f73d
00000040: c976 5d3e de7c aabd 42ed ab3e f8df 94bd
00000050: 508d 89bc 233c f43c a079 113e d05f 9d3e
00000060: 24d7 793e 52cc 743e 1d6f fc3d 489e a9bc
00000070: 1896 083d bc5d bb3c 501f 76be 2a0b 01be
00000080: 03f1 473e 839e 59be 2c9a 07be 5d24 aebe
00000090: 3913 8e3d 83a4 49bd 2976 5f3d 0ec4 a53d
000000a0: c283 ce3d 56ff 633e ae10 3fbe 0220 1d3e
000000b0: e218 35be efb3 43be 8cab b0be b760 bfbc
000000c0: 8428 57bd 8469 5abd 58bd 633e d79d 02be
000000d0: 9447 52be eb6c 003c ee3f a4bd 3afb 5fbe
000000e0: 7622 54bb 9335 0c3e d7fd bebd 2387 5c3d
000000f0: f333 b13c 041f e5bd 3179 4cbe db92 1d3e
00000100: b291 3ebe c228 63bd 48b7 a2bd 3fa8 1b3e
00000110: f178 a3be 0cd3 61be 9414 81be c91e 933e
00000120: 3f14 8cbe df89 5dbe 6f54 9ebe 0de5 8b3d
00000130: c865 4f3e 6a48 803e 8fcf c63d 536e ac3d
00000140: 392e 8e3e 3e5a d5b9 d90b dabd 51eb 913e
00000150: 58c0 313e 0603 a5bd 61c2 31be bd54 b2bd
00000160: 750c 80bd 50ff a3be 4e44 aabe 0adc 6d3e
00000170: 05f5 5f3e 0293 773b c707 0c3e ae73 863c
00000180: 03e8 9a3d e7e2 9bbd b149 6f3e 7f6f e1bd
00000190: 05bb 93be babf f43d 2477 06be 4d4e 8abe
000001a0: e877 6f3e 2795 e83d 6e98 71be 4860 8bbe
000001b0: 7dfb 3fbe c7d4 b43d 9a5f 78be 9169 1a3e
000001c0: abba 4abe 78c2 05be fc87 bf3d 9419 17be
000001d0: eb71 93be 1454 563d f07d 083d 7ff6 20be
000001e0: 3d2e 66bd 020d 5a3e 881c 58bd 94a2 863e
000001f0: e99f 9d3e bc31 103e e815 f93d 7c42 87be
00000200: 3521 5f3c 0dd9 023e 08b0 90be aeba 063d
00000210: b920 c13d 8a81 8abd c7be 9f3e d848 acbe
00000220: c8e4 103e 7fdc a93d 1b7f 8f3e 72cd 43bc
00000230: b4a5 c03d f845 02be 8f8b 93bd 11a6 e0bb
00000240: 2161 633e 731f 863d be4f 9e3d a314 ed3d
00000250: b583 8a3d b641 933e e679 a13e 2cdd 68be
00000260: 2234 d13d 8f47 a63e 841f abbe 7c6b 9f3e
00000270: 1ed8 e23a 5d7c aabe c5e0 a6bd 2259 b73a
00000280: 9c2e 2aba b352 69be 4821 233e 169f 803e
00000290: 229a 813e 5854 59bd f43c 90bb f49a 853e
000002a0: dd96 983e 727a 8e3d cd32 1b3e 2658 67bd
000002b0: b5c2 2fbe 874d 0e3e e107 553e d952 813e
000002c0: 8767 71be f53a 113d 5f8d 173c 4910 613e
000002d0: d198 433e 2c7c 353e 9b66 1abe 575e 103e
000002e0: abf0 47be 258c a1bd 1244 2ebd 2b04 aebe
000002f0: 7b8e 6b3e a1d8 663c 1849 a53d 40df 8c3e
00000300: 513a 2bbe 7ae9 e8ba 390f 153d 2bda 823e
00000310: 74f3 3c3e 2042 c3bd 5dd0 73be e417 373d
00000320: 4890 873e 0972 133e 5374 0b3c 1ce5 af3c
00000330: 2b31 a93e 5fda 44be 76c6 8fbe 2205 cf3d
00000340: 0fa3 99be dd35 f53d 14c8 9abe 61cf 56bd
00000350: 7cb2 d73c 8562 1d3e 5339 1a3e 194b 9bbd
00000360: 2397 f83d 4f42 113d 9389 1dbe 25fb f1bd
00000370: 14e4 1a3e 5f97 b7be 8576 b9bc b8d6 a5bc
00000380: 6d2d 56bd fb0f 8a3e 7ad9 883e 6641 0cbe
00000390: d801 803d 395d 43bd a86c 9b3e 6f7e df3d
000003a0: 7fe6 9f3e ee91 cabd ca29 943d d1be 433e
000003b0: efbb 393e d04e 36b8 f3cf 2c3c c4fd 743d
000003c0: 4fe8 2f3e 7509 95be 2669 353e 77f5 b23e
000003d0: f961 ac3e e535 883e a9d8 febd a421 6abe
000003e0: 2b47 163e 743a 79be ee6a 2e3e e598 6a3d
000003f0: 9029 9ebe d28d 87be 51fd 3bbe b5a8 7d3e

fc2.weight f4 [256, 512]
-0.031747144 0.06464091 -0.0073227882 0.009016818 0.055460125 -0.0021734403 -0.024882924 -0.03259248
-0.05109842 -0.032305337 -0.024915716 -0.017407766 0.047411185 -0.017865969 -0.03910451 0.027222991
-0.021617627 -0.024743492 -0.016466763 0.031687386 -0.036686197 0.010109742 0.03275303 0.047477107
-0.023015313 0.005393948 -0.0544183 -0.04461609 -0.006799659 0.011544981 0.036585268 -0.031665824
-0.022632303 -0.026256412 0.072250456 0.042558294 -0.03884744 0.00511289 -0.0324135 -0.017847009
-0.0118542975 0.029475257 0.065775864 0.01673292 0.05210155 0.018875971 -0.012604356 -0.006318031
0.008268893 0.005325985 0.024517044 0.053594995 0.044436738 -0.030386433 0.04359119 0.06417817
0.057449374 0.017958662 0.018243717 0.03912628 0.0034080576 -0.012478843 0.04353047 -0.0728083
0.008008301 0.01652662 0.039799172 0.06920771 -0.019872608 0.06272524 0.029046223 -3.365922e-05
0.0304754 -0.027499283 -0.0154704 0.02185505 -0.041859012 -0.031495355 -0.041530382 0.0017105576
-0.054870702 -0.0026241355 -0.028805146 -0.032451205 0.010163514 0.0131104635 0.020922795 0.019290706
0.042962737 0.04777499 -0.023654375 0.011269775 -0.06148712 -0.031222992 -0.005374481 0.03474863
-0.041972894 0.015756981 -0.028119046 -0.015915852 -0.03302333 -0.050973546 -0.039290898 -0.011869568
-0.01594869 0.010883181 -0.039858237 0.034029838 -0.014778029 -0.013940785 -0.028439656 0.05983774
0.034352038 0.03788301 0.003356196 -0.0076499376 0.04880601 0.042914644 -0.0069327615 0.02384049
-0.037821464 -0.011564068 -0.021103919 0.03574087 -0.017370092 0.014914436 -0.03081449 -0.03470015
0.03827924 -0.0026876717 0.032350335 -0.03768772 -0.047169175 -0.043670196 0.039164916 0.04600563
-0.028041381 -0.048610803 -0.008507394 -0.007550252 -0.013026973 -0.0019493013 -0.031296548 -0.057965722
-0.019072125 0.0136551885 0.05218164 -0.04797601 0.021014154 0.012937967 -0.0595102 -0.028354667
-0.006483439 0.04296451 0.043956008 -0.014349727 -0.015788656 -0.014901545 -0.015810492 -0.017790923
-0.025101999 -0.03423198 -0.06701484 0.023960296 -0.019233357 0.040402647 0.02174257 -0.027406394
-0.06278694 -0.0236642 -0.027230171 -0.022475082 0.01405647 -0.015327836 -0.03941831 -0.010159617
-0.025117103 -0.032749876 0.042711705 0.00983584 -0.006677914 0.05262997 0.023029003 -0.02563803
0.028235625 -0.06737134 -0.005161137 -0.03389073 -0.004428369 -0.018055316 -0.04402438 0.028286057
0.05996932 -0.0022789242 -0.022113077 -0.02494841 -0.035185 -0.008642347 -0.0026430022 -0.018390602
-0.02334486 0.026933283 -0.007276123 0.004809306 -0.035057068 0.022749502 -0.030468853 -0.0076515996
0.033687744 0.011308199 0.011662825 -0.027187757 -0.017548934 -0.009579712 0.040985394 -0.05302408
-0.014637296 0.011046806 0.027257176 0.014899315 -0.081316665 0.030897219 0.03415833 -0.0039050868
-0.03625431 0.035026334 -0.03617868 -0.0012303016 0.009941354 0.025761493 0.04144595 -0.036808908
-0.031884875 -0.028552376 -0.009134635 0.0019233207 -0.008585892 -0.033722214 0.032694265 -0.026728442
0.043391764 -0.0035560802 0.024054084 -0.03792216 -0.029600853 0.044511523 0.013967817 -0.031519946
-0.031891916 -0.03925767 -0.07811754 -0.03984779 -0.016925901 -0.0306889 0.05688529 0.052114267
00000000: 4b09 02bd 7462 843d 00f4 efbb 47bb 133c
00000010: 282a 633d 4770 0ebb 46d7 cbbc b17f 05bd
00000020: 944c 51bd 9a52 04bd 0b1c ccbc bb9a 8ebc
00000030: 3b32 423d a75b 92bc 0d2c 20bd c002 df3c
00000040: 7317 b1bc ddb2 cabc 4ee5 86bc a2ca 013d
00000050: 4444 16bd 55a3 253c 0b28 063d 5b77 423d
00000060: 9c8a bcbc b7bf b03b b9e5 5ebd 5cbf 36bd
00000070: adcf debb 2927 3d3c 6fda 153d 06b4 01bd
00000080: 6167 b9bc b017 d7bc 0cf8 933d 9b51 2e3d
00000090: 7e1e 1fbd 088a a73b 05c4 04bd e433 92bc
000000a0: 8738 42bc 1876 f13c 7fb5 863d 7a13 893c
000000b0: 6f68 553d c8a1 9a3c 8082 4ebc 7c07 cfbb
000000c0: 407a 073c 9a85 ae3b f8d7 c83c 6d86 5b3d
000000d0: 4c03 363d f8ec f8bc ad8c 323d d86f 833d
000000e0: 0950 6b3d 0b1e 933c d973 953c e142 203d
000000f0: b859 5f3b 1074 4cbc 024d 323d 851c 95bd
00000100: 4035 033c d662 873c 7504 233d c6bc 8d3d
00000110: e1cb a2bc 1776 803d 58f2 ed3c 502d 0db8
00000120: 8ca7 f93c 2d46 e1bc 9077 7dbc 5d09 b33c
00000130: 5b74 2bbd 4601 01bd c31b 2abd ca34 e03a
00000140: 1ac0 60bd b0f9 2bbb c5f8 ebbc 8eeb 04bd
00000150: de84 263c 45cd 563c 4866 ab3c 8b07 9e3c
00000160: b2f9 2f3d b5af 433d d2c6 c1bc dda4 383c
00000170: ebd9 7bbd 5cc7 ffbc 6a1c b0bb 9454 0e3d
00000180: c5eb 2bbd c914 813c ea59 e6bc f661 82bc
00000190: 7943 07bd a3c9 50bd 7eef 20bd 9478 42bc
000001a0: d4a6 82bc 5f4f 323c 6442 23bd df62 0b3d
000001b0: 8c1f 72bc e467 64bc 48fa e8bc 6b18 753d
000001c0: b9b4 0c3d 372b 1b3d a0f3 5b3b 54ac fabb
000001d0: d0e8 473d 44c7 2f3d 382c e3bb 224d c33c
000001e0: aeea 1abd 3777 3dbc 20e2 acbc 0565 123d
000001f0: b94b 8ebc ae5b 743c ab6e fcbc bf21 0ebd
00000200: b1ca 1c3d a623 30bb c981 043d 705e 1abd
00000210: 7734 41bd 85df 32bd 646b 203d 6670 3c3d
00000220: 0ab7 e5bc 1f1c 47bd 9962 0bbc 1b68 f7bb
00000230: 166f 55bc b37f ffba cf30 00bd 776d 6dbd
00000240: 253d 9cbc 03ba 5f3c 6abc 553d 7e82 44bd
00000250: e025 ac3c c4f9 533c f8c0 73bd 0c48 e8bc
00000260: 0773 d4bb 8efb 2f3d 370b 343d 1e1b 6bbc
00000270: 3657 81bc 9c25 74bc 0185 81bc 45be 91bc
00000280: b5a2 cdbc d536 0cbd 143f 89bd 6248 c43c
00000290: 468f 9dbc 3f7d 253d 791d b23c 6083 e0bc
000002a0: 7096 80bd 6ddb c1bc cf11 dfbc aa1d b8bc
000002b0: 1c4d 663c 9b21 7bbc 1875 21bd 8674 26bc
000002c0: 62c2 cdbc bc24 06bd 78f2 2e3d 8126 213c
000002d0: 67d2 dabb 8692 573d 52a7 bc3c d906 d2bc
000002e0: 664e e73c fcf9 89bd c11e a9bb 02d1 0abd
000002f0: da1b 91bb bee8 93bc e952 34bd 29b8 e73c
00000300: 64a2 753d 015a 15bb 7c26 b5bc 9c60 ccbc
00000310: 261e 10bd a198 0dbc 3836 2dbb e3a7 96bc
00000320: b83d bfbc 30a3 dc3c 8b6c eebb 6297 9d3b
00000330: 0098 0fbd 2a5d ba3c d199 f9bc 45ba fabb
00000340: 29fc 093d 0646 393c 6f15 3f3c dcb8 debc
00000350: c8c2 8fbc 39f4 1cbc 4de0 273d c72f 59bd
00000360: 45d1 6fbc aafd 343c 714a df3c 421c 743c
00000370: 5a89 a6bd 2a1c fd3c 9be9 0b3d 7cec 7fbb
00000380: 667f 14bd c677 0f3d 1830 14bd 1242 a1ba
00000390: 10e1 223c c409 d33c 3ac3 293d f0c4 16bd
000003a0: b799 02bd ace6 e9bc 70a9 15bc ef17 fc3a
000003b0: d7ab 0cbc 4e20 0abd 6cea 053d 9bf5 dabc
000003c0: 90bb 313d 200d 69bb 120d c53c 4454 1bbd
000003d0: 7d7d f2bc b751 363d 45d9 643c 0f1b 01bd
000003e0: 19a1 02bd a7cc 20bd 17fc 9fbd 7037 23bd
000003f0: 30a8 8abc 4a67 fbbc 8d00 693d c575 553d

fc2.bias f4 [256]
-0.00977888 0.033367883 0.0054497733 0.040220108 -0.03403722 0.015581582 -0.010253423 0.023703054
-0.03691558 0.038895834 0.0047742175 -0.03720857 0.047108058 -0.023585992 0.02340347 0.031143837
0.014215964 0.023985686 -0.0046509667 -0.006302389 0.004040066 0.0044181147 0.0034594452 0.022944225
0.01334513 -0.028349388 0.015776653 0.024581486 0.0016493622 -0.0337946 -0.026932003 0.028509164
0.019872895 -0.010529326 -0.032809895 0.007358616 -0.0066736373 -0.046660643 0.0069304947 0.0010978872
0.007989434 -0.007750812 -0.040036406 0.015193119 -0.0289146 0.045376446 0.046446756 0.04776615
0.053550396 -0.024409588 0.023973558 0.022085546 -0.019615246 -0.041522626 0.015198106 -0.02515398
-0.028310014 -0.017131764 -0.00461439 0.024744922 -0.024244238 -0.037215654 -0.013409711 -0.0035584453
0.007479447 0.023524394 -0.01611727 -0.0139307035 0.0070732767 -0.013027516 0.023240112 0.02373234
0.005530371 -0.005599573 0.020344995 -0.01237396 -0.0012214696 -0.0006985758 0.018199224 -0.02243871
0.034452755 -0.046528224 -0.013229161 0.026818275 -0.01387578 -0.006828211 0.021137692 0.03546258
-0.023696374 0.016933026 -0.01370506 0.020994514 -0.006597032 -0.031497885 0.008308186 0.04265125
-0.018580781 -0.007137117 0.03121558 -0.049890343 -0.016402792 -0.03326295 0.029376544 -0.012534871
-0.020808557 -0.044453494 -0.035381846 0.012969345 -0.039946515 -0.041596144 0.027351756 0.031263325
-0.023628548 0.009350817 -0.028446214 -0.012067291 -0.015864972 0.02318291 -0.029758058 0.03210546
0.042338762 -0.025158659 0.017337566 0.007750979 -0.050083272 0.0073430613 -0.00898694 0.006975686
0.02389139 0.024380157 -0.037112467 -0.02628905 0.020782711 -0.011059035 0.03379592 -0.04299356
-0.03145005 0.016904542 -0.00072559254 0.015847355 -0.016565347 0.03098872 0.033142902 -0.010924388
0.02375902 0.003675306 -0.022625409 0.007949292 0.004934987 0.008403867 0.0030578182 -0.0481967
0.007504942 0.021414937 0.017645283 -0.014139311 -0.024760852 -0.03113238 0.016762026 -0.04506175
0.039733417 -0.003088813 0.027468173 0.03100257 0.015447112 -0.027693512 0.031224923 -0.028481668
-0.04562691 0.033663988 -0.010161019 0.023549624 -0.0023494125 -0.011064937 0.0026521105 -0.0059101395
0.020959564 0.04677396 0.0022892207 -0.023734821 -0.010817004 -0.0032694787 0.005321949 0.02708306
-0.0024370742 -0.017386764 -0.024607977 0.029010564 -0.01777074 0.041832373 -0.0070360424 -0.027711172
0.013716288 -0.05032691 0.0046029026 -0.022566 0.017459424 0.0050543286 -0.013862863 -0.046278547
0.014575742 -0.026513088 0.0398823 0.03044183 0.021141334 0.031375967 0.034701895 0.0043787444
-0.0067171864 -0.014484213 -0.02977189 0.014796848 0.034914218 -0.006399509 0.0137909865 -0.012336166
-0.011642695 -0.003494596 -0.0025490955 0.037330244 0.03381449 -0.025464619 -0.025994873 -0.04484628
0.033790383 0.00040565387 0.0148296375 -0.028172472 0.008707035 -0.037075028 -0.042408958 0.041547414
-0.025835622 0.020637112 0.027114246 -0.012718236 0.051848277 -0.03346683 0.030453758 -0.01916207
-0.011726418 0.008439688 0.026911277 0.0024918455 0.02290601 -0.038321346 -0.010365873 0.0005974502
0.03338948 -0.031805854 -0.02476903 0.01722547 0.007690297 -0.038187522 0.01622729 0.055320203
00000000: 9837 20bc c3ac 083d 0394 b23b d7bd 243d
00000010: 9d6a 0bbd e449 7f3c f9fd 27bc e82c c23c
00000020: cb34 17bd 3d51 1f3d 0a71 9c3b 0368 18bd
00000030: 61f4 403d 6937 c1bc a2b8 bf3c 5c21 ff3c
00000040: 13ea 683c a17d c43c 2367 98bb 4584 cebb
00000050: 8862 843b d5c5 903b dcb7 623b 87f5 bb3c
00000060: 88a5 5a3c fa3c e8bc 0a3e 813c 1d5f c93c
00000070: 692f d83a 356c 0abd 81a0 dcbc 0d8c e93c
00000080: 7bcc a23c 3283 2cbc ab63 06bd 8c20 f13b
00000090: 87ae dabb 3b1f 3fbd 3419 e33b fbe6 8f3a
000000a0: 1de6 023c 86fa fdbb 37fd 23bd 8fec 783c
000000b0: 50de ecbc a7dc 393d f43e 3e3d 70a6 433d
000000c0: a957 5b3d 9ef6 c7bc 3264 c43c bfec b43c
000000d0: 27b0 a0bc a113 2abd 7a01 793c b80f cebc
000000e0: 67ea e7bc ea57 8cbc 4f34 97bb ddb5 ca3c
000000f0: da9b c6bc 716f 18bd 68b4 5bbc ce34 69bb
00000100: 2616 f53b 3bb6 c03c 5d08 84bc 9b3d 64bc
00000110: f2c6 e73b 5d71 55bc 0c62 be3c 536a c23c
00000120: 1d38 b53b 9f7c b7bb 8caa a63c 26bc 4abc
00000130: b819 a0ba a120 37ba 8a16 953c 63d1 b7bc
00000140: 551e 0d3d 6194 3ebd 1fbf 58bc 00b2 db3c
00000150: 3d57 63bc 2fbf dfbb f428 ad3c 3641 113d
00000160: e61e c2bc 21b7 8a3c 308b 60bc b0fc ab3c
00000170: ea2b d8bb ed03 01bd 0f1f 083c 14b3 2e3d
00000180: b936 98bc 7ade e9bb d1b7 ff3c d159 4cbd
00000190: 265f 86bc bb3e 08bd 14a7 f03c 0f5f 4dbc
000001a0: b576 aabc de14 36bd 8eec 10bd 607d 543c
000001b0: f59e 23bd b860 2abd ca10 e03c f90d 003d
000001c0: a890 c1bc 2b34 193c 0908 e9bc e3b5 45bc
000001d0: 42f7 81bc 16ea bd3c 2cc7 f3bc 0481 033d
000001e0: 696b 2d3d 8819 cebc 8307 8e3c edfb fd3b
000001f0: 1e24 4dbd 109e f03b f53d 13bc 4c94 e43b
00000200: e0b7 c33c e5b8 c73c 3e03 18bd 225c d7bc
00000210: 8140 aa3c f430 35bc 976d 0a3d 041a 30bd
00000220: c5d1 00bd 657b 8a3c b135 3eba 50d2 813c
00000230: 0db4 87bc 0edc fd3c dac0 073d 34fc 32bc
00000240: 47a2 c23c 67dd 703b ec58 b9bc bf3d 023c
00000250: acb5 a13b 5fb0 093c ad65 483b e769 45bd
00000260: 04ec f53b 616e af3c d78c 903c 92a8 67bc
00000270: 45d7 cabc 5509 ffbc 8450 893c ab92 38bd
00000280: 82bf 223d af6d 4abb ef04 e13c 1af9 fd3c
00000290: e215 7d3c 81dd e2bc 69cb ff3c 6352 e9bc
000002a0: 48e3 3abd 40e3 093d 677a 26bc 24eb c03c
000002b0: 9af8 19bb b649 35bc 08cf 2d3b d8a9 c1bb
000002c0: 64b3 ab3c 0d96 3f3d c006 163b 876f c2bc
000002d0: ce39 31bc c044 56bb be63 ae3b 4bdd dd3c
000002e0: 52b7 1fbb b06e 8ebc ab96 c9bc 90a7 ed3c
000002f0: f193 91bc 6c58 2b3d 9a8e e6bb 8a02 e3bc
00000300: 48ba 603c 9723 4ebd f2d3 963b 55dc b8bc
00000310: 1107 8f3c c89e a53b 1021 63bc 938e 3dbd
00000320: 18cf 6e3c fa31 d9bc 9f5b 233d 2561 f93c
00000330: 9730 ad3c 1684 003d 9323 0e3d 927b 8f3b
00000340: d81b dcbb 314f 6dbc 2ee4 f3bc 7b6e 723c
00000350: 3602 0f3d f9b2 d1bb 97f3 613c a11d 4abc
00000360: 01c1 3ebc 9805 65bb ba0e 27bb 99e7 183d
00000370: 1081 0a3d 2d9b d0bc 33f3 d4bc bcb0 37bd
00000380: c967 0a3d f1ad d439 02f8 723c f5c9 e6bc
00000390: f4a7 0e3c fcdb 17bd 04b5 2dbd 9f2d 2a3d
000003a0: 3aa5 d3bc 290f a93c b21e de3c 2660 50bc
000003b0: dc5e 543d 8414 09bd 297a f93c c6f9 9cbc
000003c0: 2920 40bc 9e46 0a3c 0a75 dc3c 3b4e 233b
000003d0: 62a5 bb3c d8f6 1cbd 9fd5 29bc 349e 1c3a
000003e0: 68c3 083d db46 02bd 6ce8 cabc 6e1c 8d3c
000003f0: e3fe fb3b 856a 1cbd 18ef 843c 7097 623d

fc3.weight f4 [128, 256]
-0.0006238836 -0.02900482 0.032649998 0.03576845 0.016987022 -0.004278846 -0.043886177 -0.040408153
0.049915224 0.055380583 -0.011641238 0.022839604 0.038471654 -0.015455097 0.009615307 0.016388603
-0.05313152 0.02226832 0.077043585 -0.038623765 -0.04898697 -0.019122154 0.012545217 0.067385055
0.009089755 0.028224435 -0.040322173 0.002130165 -0.021631828 -0.0514997 0.011433283 0.0026580708
0.045847256 -0.026114227 0.014181535 -0.022304943 -0.036782026 -0.038993206 0.019591382 -0.007042857
-0.042005993 -0.023372475 -0.0064230342 -0.04352666 0.032948297 0.025841866 0.027164476 -0.015099494
0.035555143 0.045504913 0.0152097205 -0.05941687 0.0632104 -0.03894654 -0.015998272 0.021291386
0.04813757 0.0250304 0.0010025854 0.026166258 0.067622915 -0.046412338 -0.030269459 -0.0068996954
0.03712645 0.06845541 0.03715102 0.05943002 -0.023019774 -0.034632705 0.015687795 -0.035633292
0.07831514 0.0046507586 0.0584768 -0.0014330603 0.010058922 0.014259422 -0.023540128 -0.027931064
-0.033594616 -0.02401699 0.025789998 -0.016859049 0.03151921 0.006373133 -0.00965713 0.09206893
0.031963788 -0.03612756 0.07597189 0.0031857528 -0.023406625 -0.0154332025 -0.018396005 0.007574059
0.014786522 0.013188816 -0.020757847 -0.019451242 0.049502686 0.04304558 0.04531129 0.0077008796
-0.025948359 0.04788494 0.035056897 0.07030955 0.017059354 0.056105614 -0.0182981 -0.03914423
0.043606758 0.00040147276 0.014348615 0.009376726 -0.026853608 0.038657393 0.07524634 -0.014225793
-0.04109989 0.016997274 -0.01616554 0.047157034 0.022263123 0.019070188 0.039933227 0.035345722
0.05892885 0.028816042 -0.0005950924 0.052144773 0.016297711 0.015377604 -0.024840528 -0.032739643
0.00015011038 -0.05274305 0.056514114 -0.014657868 0.028282741 -0.02151531 -0.0300037 0.03747963
-0.02028003 0.008334644 0.026317677 -0.034655206 -0.016817644 0.03076888 -0.03979398 0.036278956
-0.04443862 0.030641135 -0.038405832 0.031294502 -0.032752503 0.07883545 0.026027454 0.033458136
0.01942244 0.030497884 0.037458446 0.00078662613 0.013351403 -0.02760927 0.0014593073 -0.06433657
-0.006636121 0.029340677 0.049267106 0.026342684 0.010091906 0.03784999 0.02187984 0.022931967
0.0026547117 -0.004173295 0.055058766 0.030592553 -0.0045745983 0.034338873 0.07642829 0.0058902386
0.044434942 -0.0017529954 0.019025533 0.04164036 -0.004305275 -0.031517383 -0.012350643 -0.0026108953
0.05372151 -0.04502282 0.0782128 0.036322158 -0.04030992 0.044134323 0.078888744 0.025574664
0.041465174 0.011410591 0.024947291 0.04111132 -0.023347631 -0.023825284 0.015156746 -0.03752317
-0.02699735 -0.049050488 0.027246814 -0.041910045 0.0047773733 0.016129903 0.041968256 -0.014414261
-0.009357314 -0.0072321338 -0.0060361265 0.064778246 0.03801877 0.030391911 -0.050489955 0.05932483
0.06921717 -0.024284191 0.05756742 0.036777154 -0.023666462 0.0673863 -0.042855147 -0.057749942
-0.07107732 0.08490062 0.03714414 0.0223752 -0.06174225 0.008072586 0.0073904432 -0.039356347
-0.045908634 0.0714091 -0.014843014 0.040431876 -0.01944975 0.0026033677 0.010525171 0.020484075
0.011093581 -0.002572665 0.02617603 0.080767006 -0.059307225 0.043311216 -0.053264175 -0.007358585
00000000: 1f8c 23ba 849b edbc 01bc 053d f081 123d
00000010: 5e28 8b3c 9035 8cbb fec1 33bd 0583 25bd
00000020: e873 4c3d c0d6 623d e4ba 3ebc 1f1a bb3c
00000030: 7494 1d3d 6037 7dbc 8589 1d3c 6441 863c
00000040: 70a0 59bd 0d6c b63c 07c9 9d3d f433 1ebd
00000050: 90a6 48bd 10a6 9cbc 748a 4d3c 2d01 8a3d
00000060: 32ed 143c ee36 e73c dd28 25bd 3d9a 0b3b
00000070: 3b35 b1bc 59f1 52bd aa52 3b3c 0733 2e3b
00000080: 55ca 3b3d 81ed d5bc ab59 683c dbb8 b6bc
00000090: c0a8 16bd 57b7 1fbd 1b7e a03c c4c7 e6bb
000000a0: 7a0e 2cbd a277 bfbc 5178 d2bb 0349 32bd
000000b0: cbf4 063d 52b2 d33c 0988 de3c de63 77bc
000000c0: 45a2 113d 5c63 3a3d 3132 793c 1b5f 73bd
000000d0: 7474 813d 6886 1fbd cf0e 83bc 466b ae3c
000000e0: e72b 453d 8e0c cd3c 2f69 833a 9f5a d63c
000000f0: e27d 8a3d dd1a 3ebd a8f7 f7bc d716 e2bb
00000100: e811 183d 5a32 8c3d ab2b 183d e56c 733d
00000110: f793 bcbc 06db 0dbd b183 803c 37f4 11bd
00000120: b063 a03d 6465 983b 5e85 6f3d 86d5 bbba
00000130: 2dce 243c 5aa0 693c 3ad7 c0bc b0cf e4bc
00000140: 829a 09bd 47bf c4bc 8c45 d33c fd1b 8abc
00000150: 4a1a 013d b7d5 d03b f038 1ebc a38e bc3d
00000160: 76ec 023d 7efa 13bd 2697 9b3d 10c8 503b
00000170: 40bf bfbc 8bdb 7cbc 38b3 96bc d02f f83b
00000180: 2b43 723c e715 583c 5c0c aabc 3658 9fbc
00000190: 54c3 4a3d 9050 303d 5598 393d a957 fc3b
000001a0: a791 d4bc 0023 443d d297 0f3d 74fe 8f3d
000001b0: 0fc0 8b3c 00cf 653d e6e5 95bc b355 20bd
000001c0: 009d 323d c37c d239 7416 6b3c d7a0 193c
000001d0: 19fc dbbc 3757 1e3d c11a 9a3d 4d13 69bc
000001e0: 5c58 28bd de3d 8b3c 986d 84bc bc27 413d
000001f0: 2761 b63c 1539 9c3c 0691 233d adc6 103d
00000200: 615f 713d 9f0f ec3c faff 1bba c295 553d
00000210: c782 853c 59f2 7b3c 5d7e cbbc 011a 06bd
00000220: f366 1d39 1909 58bd 587b 673d 8e27 70bc
00000230: 35b1 e73c e040 b0bc 52ca f5bc 3e84 193d
00000240: 4e22 a6bc 088e 083c 2b98 d73c 9ef2 0dbd
00000250: 28c5 89bc 050f fc3c 03ff 22bd 3e99 143d
00000260: 4505 36bd 1e03 fb3c 6f4f 1dbd aa2e 003d
00000270: 7d27 06bd 7b74 a13d 8737 d53c 660b 093d
00000280: cf1b 9f3c b3d6 f93c 076e 193d 9635 4e3a
00000290: d8bf 5a3c d62c e2bc 3a46 bf3a e4c2 83bd
000002a0: d173 d9bb dc5b f03c 4ecc 493d 9dcc d73c
000002b0: 8658 253c 9708 1b3d 5a3d b33c d2db bb3c
000002c0: acfa 2d3b 23c0 88bb 4d85 613d 3c9d fa3c
000002d0: 83e6 95bb eba6 0c3d 6f86 9c3d e702 c13b
000002e0: 6a01 363d c4c4 e5ba 6fdb 9b3c 158f 2a3d
000002f0: 4413 8dbb 5f18 01bd 5a5a 4abc 8e1b 2bbb
00000300: 160b 5c3d d969 38bd 082e a03d 8bc6 143d
00000310: 041c 25bd 31c6 343d 6c90 a13d f581 d13c
00000320: 63d7 293d 7df3 3a3c 435e cc3c 5864 283d
00000330: 8843 bfbc 3e2d c3bc 0054 783c e5b1 19bd
00000340: 8c29 ddbc 2ae9 48bd b634 df3c dea9 2bbd
00000350: 838b 9c3b dc22 843c e8e6 2b3d cb29 6cbc
00000360: 6b4f 19bc 89fb ecbb b3ca c5bb 75aa 843d
00000370: 92b9 1b3d 75f8 f83c 8ece 4ebd 98fe 723d
00000380: bbc1 8d3d a4ef c6bc d1cb 6b3d a4a3 163d
00000390: 2be0 c1bc d401 8a3d e188 2fbd 348b 6cbd
000003a0: fc90 91bd 60e0 ad3d 7424 183d 324c b73c
000003b0: 71e5 7cbd e142 043c 882b f23b 1f34 21bd
000003c0: b10a 3cbd ef3e 923d 1d30 73bc e59b 253d
000003d0: 1555 9fbc 439d 2a3b c471 2c3c 38ce a73c
000003e0: dac1 353c 289a 28bb 1d6f d63c 2c69 a53d
000003f0: 22ec 72bd 1a67 313d 892b 5abd 4920 f1bb

fc3.bias f4 [128]
0.017496068 -0.008431744 -0.07725082 -0.021324163 0.049179837 -0.044716537 -0.025443174 0.033737287
-0.03346725 0.026774751 -0.07128188 0.015545377 -0.012642107 0.039400194 -0.023882404 -0.013825759
-0.0336726 0.031515095 0.029419323 -0.018258048 0.026970277 -0.035291523 -0.05945852 0.06710001
-0.03712684 -0.014970711 0.040916853 0.041697558 0.017651888 0.006944421 -0.045081094 -0.0085904375
0.032671526 0.0040868544 0.0012381725 -0.051931538 -0.036557585 -0.024261592 -0.035534676 0.013000162
-0.019239783 -0.038268376 -0.053589597 -0.063917674 0.044621762 -0.0033153936 0.008965091 -0.034217395
0.026003454 -0.015151186 -0.007716273 0.00044924126 0.03318869 -0.03896309 0.04666144 0.037242644
-0.02845912 -0.010827095 -0.063155465 0.0013576705 0.053750668 -0.008076312 -0.022413122 -0.039683316
0.029459504 0.04954437 0.04634468 0.023207493 -0.017118325 0.06733608 -0.0004317582 -0.004852546
-0.0037751272 -0.006465241 0.0034372984 0.034008913 0.0012343304 -0.055432267 -0.028699182 0.045440517
0.066043735 -0.03190864 -0.033334583 0.017360976 0.042780854 -0.010959318 0.062203895 0.014006434
0.052150194 -0.010179778 0.03559055 -0.025173247 -0.013932382 -0.025261663 0.050547376 -0.036433026
0.055325735 -0.007882602 -0.045051184 0.06085892 -0.035829935 -0.030440975 0.034095213 0.027006812
0.034797147 -0.06662717 0.031029373 0.0013948558 -0.029539786 0.0039189165 -0.030618455 -0.02664022
0.04122873 0.03173529 -0.06266365 -0.044439133 -0.022343455 0.005283929 0.031058282 0.03145078
-0.007118278 0.008573754 0.06076298 -0.025506806 -0.031418834 -0.060432896 -0.013555906 0.03424554
00000000: ea53 8f3c 4c25 0abc ae35 9ebd 03b0 aebc
00000010: cc70 493d b028 37bd 346e d0bc 1c30 0a3d
00000020: f514 09bd b956 db3c 3cfc 91bd 09b2 7e3c
00000030: d720 4fbc 1962 213d 08a5 c3bc 7085 62bc
00000040: 48ec 09bd f915 013d cb00 f13c e791 95bc
00000050: c5f0 dc3c d88d 10bd c78a 73bd bb6b 893d
00000060: 5012 18bd b747 75bc 6e98 273d 0fcb 2a3d
00000070: b19a 903c 078e e33b f4a6 38bd e8be 0cbc
00000080: 94d2 053d 05eb 853b 2d4a a23a 2ab6 54bd
00000090: 68bd 15bd 3fc0 c6bc cf8c 11bd a2fe 543c
000000a0: c09c 9dbc 4dbf 1cbd c480 5bbd 45e7 82bd
000000b0: 4fc5 363d 1347 59bb 51e2 123c 8a27 0cbd
000000c0: 3205 d53c ae3c 78bc cad8 fcbb 2488 eb39
000000d0: ddf0 073d c397 1fbd 1120 3f3d be8b 183d
000000e0: 1a23 e9bc 2164 31bc a757 81bd ddf3 b13a
000000f0: a929 5c3d 8252 04bc b99b b7bc f98a 22bd
00000100: 0f55 f13c 0aef 4a3d ebd3 3d3d a41d be3c
00000110: bb3b 8cbc 80e7 893d 9b5d e2b9 1b02 9fbb
00000120: 2068 77bb 5fda d3bb 4c44 613b ee4c 0b3d
00000130: 41c9 a13a f20c 63bd 8c1a ebbc d61f 3a3d
00000140: f041 873d a2b2 02bd d889 08bd 9b38 8e3c
00000150: fa3a 2f3d b68e 33bc 83c9 7e3d 3e7b 653c
00000160: 719b 553d 15c9 26bc 66c7 113d 2038 cebc
00000170: a544 64bc 8cf1 cebc c40a 4f3d cc3a 15bd
00000180: 3d9d 623d 0726 01bc 9787 38bd 3447 793d
00000190: 69c2 12bd 5a5f f9bc 6ca7 0b3d 643d dd3c
000001a0: 7487 0e3d d373 88bd 5031 fe3c 98d3 b63a
000001b0: 6cfd f1bc 416a 803b 8ed3 fabc 973c dabc
000001c0: 75df 283d ddfc 013d cd55 80bd cf05 36bd
000001d0: 9f09 b7bc cf24 ad3b f06d fe3c 88d2 003d
000001e0: 7240 e9bb ee78 0c3c 9ae2 783d a6f3 d0bc
000001f0: 09b1 00bd 7c88 77bd 9719 5ebc 0d45 0c3d

fc4.weight f4 [64, 128]
-0.034061562 0.11562829 0.06606127 0.050614767 0.051147893 -0.0800555 -0.07632444 0.08533692
-0.028580654 -0.05555433 -0.065524705 -0.077776395 0.08507026 0.070882365 0.07138606 0.08623472
0.053592727 -0.0028712023 0.04550987 0.09791717 -0.009237519 0.08652817 0.073411286 -0.04708818
-0.04741862 -0.008408891 -0.05872134 -0.080706656 0.11706448 -0.054891765 0.03891604 -0.07389976
0.037707664 0.07144428 -0.007849746 -0.03452538 0.04234107 -0.02413498 -0.096033916 -0.0070337625
0.016448792 -0.0635844 0.11235379 -0.013113983 0.113588035 0.031175729 0.022499327 0.055381704
-0.03124164 0.10657712 0.03692754 0.043746945 0.06955239 -0.079806484 0.056818206 -0.018883387
-0.060601417 -0.062252175 0.09681197 0.037874922 -0.03603842 -0.06580591 -0.07765543 0.042504545
0.0686187 0.032824423 -0.03777815 0.07310183 0.064847015 0.040729243 -0.02993147 0.0545929
0.077669434 -0.010783297 0.032707762 -0.048960615 0.07695096 0.029561372 0.08581511 0.08190109
0.0088641755 0.028467651 0.09314666 -0.013240982 -0.00416836 0.062283214 0.043766957 -0.0030260468
-0.024586912 -0.021389386 -0.030598281 0.021890828 -0.006909675 -0.0030269902 0.025037436 0.020238133
0.025401475 -0.014102097 -0.07791835 -0.013151443 -0.037557248 0.029191328 0.08125866 -0.009674109
0.060366835 0.08209013 -0.0077489265 -0.061034765 0.04704715 -0.034500077 -0.047097094 0.089876615
-0.09246408 0.0479719 0.0891922 0.046670686 -0.06587632 -0.016568044 -0.073717155 -0.000894292
-0.08078505 0.021857254 0.061164428 0.08110926 0.067279056 0.09051603 -0.0033705898 -0.024900418
-0.05880151 0.10877493 0.10275251 0.008421972 -0.0047260867 -0.05421508 -0.064475775 0.032433067
0.018991636 -0.07938614 0.04611022 -0.028727451 0.112963386 -0.08320773 0.015231451 0.048392605
0.040776897 0.06386747 -0.003198879 -0.030058347 0.04804441 0.024227776 0.035335872 0.02350398
-0.06614645 -0.078548916 -0.010411573 -0.07475048 0.071062446 0.061194163 -0.0028227814 0.027755719
-0.022094497 -0.076696694 -0.07297066 0.03390226 0.087849036 -0.015995996 0.0662711 -0.04685286
-0.032868017 -0.03186364 0.11537161 -0.019191861 0.0367916 0.07339007 0.019332431 -0.013648837
0.07119642 0.010189113 -0.051518675 0.041226506 0.016810598 -0.05142519 -0.08264124 -0.0895138
0.08939525 -0.041354142 0.098546945 0.0831635 0.096934535 -0.012383283 0.09678615 -0.0009243417
0.09079663 -0.035502937 0.013725892 0.057227127 -0.0036769912 -0.0077818222 -0.019104334 0.11048248
0.04759627 -0.02474126 -0.005479697 0.04216784 0.0735488 0.0644729 -0.060716033 0.108437344
-0.059786513 0.08673111 0.09933277 0.049063317 -0.02081866 -0.04082078 0.023045003 0.007980847
-0.038169455 0.05325356 -0.068133734 -0.04819974 -0.059576068 -0.05604946 -0.03293996 -0.034184013
0.061413556 -0.08082528 -0.070844494 0.05297002 -0.048746835 0.0023543485 0.040348392 -0.013476688
0.040210683 -0.071053796 -0.050804436 -0.012168907 -0.024965547 -0.010726848 0.086562686 -0.021995032
-0.026875107 -0.05513592 0.050914425 0.07039223 0.012792862 0.07464565 0.07418053 0.052741837
0.06552838 0.05464296 -0.068260185 0.0773263 -0.029448653 0.056656376 -0.025617499 0.05489469
00000000: 2384 0bbd 86ce ec3d 224b 873d 6e51 4f3d
00000010: 7480 513d 23f4 a3bd fd4f 9cbd 20c5 ae3d
00000020: fa21 eabc f08c 63bd d131 86bd 3b49 9fbd
00000030: 5139 ae3d c62a 913d db32 923d d49b b03d
00000040: 0c84 5b3d c82a 3cbb 8f68 3a3d cc88 c83d
00000050: f758 17bc ae35 b13d a858 963d 89df 40bd
00000060: 073a 42bd 72c5 09bc ca85 70bd 8849 a5bd
00000070: 81bf ef3d 30d6 60bd 6d66 1f3d c258 97bd
00000080: 5a73 1a3d 6151 923d 399c 00bc 7c6a 0dbd
00000090: d46d 2d3d b9b6 c5bc 6ead c4bd 7a7b e6bb
000000a0: 9ebf 863c 8a38 82bd be19 e63d 08dc 56bc
000000b0: d8a0 e83d 3e64 ff3c 8250 b83c edd7 623d
000000c0: 78ee ffbc 1b45 da3d 5541 173d ff2f 333d
000000d0: 7c71 8e3d 9571 a3bd 35ba 683d 55b1 9abc
000000e0: 3139 78bd 23fc 7ebd 5b45 c63d bc22 1b3d
000000f0: 069d 13bd 40c5 86bd cf09 9fbd 3f19 2e3d
00000100: f687 8c3d e772 063d 43bd 1abd 6ab6 953d
00000110: 83ce 843d b5d3 263d d832 f5bc ce9c 5f3d
00000120: 2711 9f3d 6dac 30bc 93f8 053d ed8a 48bd
00000130: 7798 9d3d b12a f23c d5bf af3d c2bb a73d
00000140: 0c3b 113c fe34 e93c adc3 be3d b4f0 58bc
00000150: bd96 88bb af1c 7f3d fb44 333d a450 46bb
00000160: 7e6a c9bc cb38 afbc 3fa9 fabc 6554 b33c
00000170: 8e6a e2bb 7860 46bb 4f1b cd3c 71ca a53c
00000180: c116 d03c 7b0c 67bc a893 9fbd 2679 57bc
00000190: a1d5 19bd a722 ef3c f16a a63d 2780 1ebc
000001a0: 3743 773d df1e a83d b5ea fdbb 97ff 79bd
000001b0: 83b4 403d f44f 0dbd e2e8 40bd 3b11 b83d
000001c0: cf5d bdbd 2f7e 443d 66aa b63d c329 3f3d
000001d0: 2aea 86bd b5b9 87bc 05f9 96bd ec6e 6aba
000001e0: a272 a5bd fc0d b33c 8d87 7a3d 9d1c a63d
000001f0: 9ac9 893d 7860 b93d 1de5 5cbb f6fb cbbc
00000200: dad9 70bd 64c5 de3d e86f d23d 50fc 093c
00000210: 4add 9abb a210 5ebd e00b 84bd 89d8 043d
00000220: 5994 9b3c 3395 a2bd 12de 3c3d d555 ebbc
00000230: 5959 e73d d068 aabd 568d 793c 5337 463d
00000240: ad05 273d f3cc 823d 49a4 51bb ec3c f6bc
00000250: 37ca 443d 5479 c63c 59bc 103d 6b8b c03c
00000260: ca77 87bd 41de a0bd 4d95 2abc c816 99bd
00000270: 3089 913d bba6 7a3d 6afe 38bb f65f e33c
00000280: 85ff b4bc 2813 9dbd a471 95bd 19dd 0a3d
00000290: 32ea b33d 090a 83bc 24b9 873d c9e8 3fbd
000002a0: 9da0 06bd 7383 02bd f347 ec3d 4038 9dbc
000002b0: cab2 163d 884d 963d 0c5f 9e3c 5f9f 5fbc
000002c0: 6ecf 913d 3df0 263c 3f05 53bd 20dd 283d
000002d0: 61b6 893c 38a3 52bd cf3f a9bd 0353 b7bd
000002e0: db14 b73d f662 29bd fbd2 c93d a051 aa3d
000002f0: 9d85 c63d 41e3 4abc d137 c63d 854f 72ba
00000300: 95f3 b93d 876b 11bd 90e2 603c fe66 6a3d
00000310: adf9 70bb a8fe febb b180 9cbc a344 e23d
00000320: 4ef4 423d 2fae cabc 088f b3bb 2fb8 2c3d
00000330: c1a0 963d 5e0a 843d 60b1 78bd 6614 de3d
00000340: b4e2 74bd 15a0 b13d fb6e cb3d 9ef6 483d
00000350: e58b aabc b133 27bd e0c8 bc3c 19c2 023c
00000360: 9357 1cbd 6820 5a3d b389 8bbd 176d 45bd
00000370: 0906 74bd 1e94 65bd 0dec 06bd 8904 0cbd
00000380: c88c 7b3d b987 a5bd eb16 91bd 17f7 583d
00000390: c3aa 47bd 6a4b 1a3b 5b44 253d 54cd 5cbc
000003a0: f5b3 243d a784 91bd 5018 50bd 1860 47bc
000003b0: 8c84 ccbc a9bf 2fbc c747 b13d ed2e b4bc
000003c0: 2f29 dcbc 34d6 61bd a58b 503d cd29 903d
000003d0: 2799 513c d2df 983d f6eb 973d d307 583d
000003e0: be33 863d 4cd1 5f3d ffcb 8bbd 405d 9e3d
000003f0: 4d3e f1bc 8410 683d cadb d1bc 41d9 603d

fc4.bias f4 [64]
0.067672834 -0.026362527 -0.013330461 0.038676195 -0.02660475 -0.025132066 0.08286158 0.058016043
0.07214153 -0.059826378 -0.08375213 0.032159675 0.022217479 0.039720416 -0.065758616 0.008318437
-0.043094866 -0.045033988 0.07334092 -0.010948745 0.007726339 -0.07114694 0.035672218 0.052480184
-0.0022809799 -0.074011676 0.024079474 0.015917437 0.009780881 0.055954427 -0.0131548345 0.0050098374
0.060548306 -0.017086782 0.051014252 -0.0045174714 -0.09925799 0.05820408 -0.077910684 -0.03550377
-0.036590945 0.030314386 0.10505648 -0.03306775 -0.035474617 0.057636093 0.008356653 0.073988415
0.07437981 -0.02538552 -0.06305373 -0.011433017 -0.061302777 0.027806584 0.10149799 0.09610739
-0.048985086 0.08490647 0.052416146 0.047009826 -0.023085099 -0.004141278 -0.056987572 0.035434626
00000000: 0e98 8a3d 3af6 d7bc 0268 5abc ee6a 1e3d
00000010: 34f2 d9bc c3e1 cdbc 55b3 a93d 3ba2 6d3d
00000020: f0be 933d 810c 75bd 3d86 abbd ddb9 033d
00000030: 6e01 b63c e0b1 223d 74ac 86bd 0e4a 083c
00000040: 3e84 30bd 8f75 38bd c433 963d 5d62 33bc
00000050: 3b2d fd3b 7db5 91bd 081d 123d 76f5 563d
00000060: 7e7c 15bb 6f93 97bd 5142 c53c 4965 823c
00000070: fd3f 203c 7830 653d 6087 57bc 9029 a43b
00000080: 8001 783d 94f9 8bbc 52f4 503d 4c07 94bb
00000090: c647 cbbd 6767 6e3d a38f 9fbd 676c 11bd
000000a0: 63e0 15bd e055 f83c da27 d73d 0d72 07bd
000000b0: d54d 11bd d313 6c3d 58ea 083c 3d87 973d
000000c0: 7154 983d 4bf5 cfbc 5022 81bd 8d51 3bbc
000000d0: 9f18 7bbd a2ca e33c 2ede cf3d f4d3 c43d
000000e0: 96a4 48bd 71e3 ad3d 50b2 563d 608d 403d
000000f0: f61c bdbc 8fb3 87bb cd6b 69bd e623 113d

fc5.weight f4 [1, 64]
-0.02569472 -0.017821375 -0.11187523 -0.04725592 0.13188541 -0.10787579 0.09036115 0.060644
0.05650801 0.12175175 -0.12523519 -0.107781544 -0.041037746 0.08589212 0.10988996 -0.11003315
-0.024594866 0.07991997 0.032258093 0.12198945 0.10776856 0.053185422 -0.081428945 -0.031300146
-0.071319595 0.07822985 -0.08800182 0.0434724 0.13953204 -0.079692185 -0.10320817 0.10222485
-0.16074888 -0.1138314 -0.09346062 -0.07749652 -0.038560476 0.09247292 -0.08879952 0.06482607
-0.12362509 0.1438605 0.11440193 -0.10413594 0.06852162 -0.13950977 -0.01094877 0.1042529
-0.075501904 -0.104519464 0.1407088 -0.061878566 0.1582732 0.036609456 0.1103419 0.09343313
0.09350766 0.072909236 -0.009150055 -0.09715137 0.095682636 -0.115954824 -0.073955044 0.04778868
00000000: bc7d d2bc 22fe 91bc d71e e5bd 6c8f 41bd
00000010: f80c 073e fbed dcbd 440f b93d d865 783d
00000020: f174 673d fb58 f93d a73d 00be 92bc dcbd
00000030: 3217 28bd 35e8 af3d fd0d e13d 0f59 e1bd
00000040: 2c7b c9bc 15ad a33d 1021 043d 9bd5 f93d
00000050: c3b5 dc3d f5d8 593d 38c4 a6bd 9534 00bd
00000060: 0210 92bd f936 a03d 4c3a b4bd 1e10 323d
00000070: 7de1 0e3e a835 a3bd ce5e d3bd 435b d13d
00000080: 5b9b 24be 7020 e9bd 4868 bfbd 7fb6 9ebd
00000090: 97f1 1dbd 7162 bd3d 86dc b5bd 88c3 843d
000000a0: 272f fdbd 2b50 133e 8f4b ea3d 3945 d5bd
000000b0: 1055 8c3d a6db 0ebe 7862 33bc 8b82 d53d
000000c0: bea0 9abd 4d0e d6bd f815 103e 6174 7dbd
000000d0: 5f12 223e ccf3 153d effa e13d de59 bf3d
000000e0: f280 bf3d 7051 953d 1dea 15bc 4cf7 c6bd
000000f0: 42f5 c33d b979 edbd be75 97bd 10be 433d
